…
equences=True),\n  tf.keras.layers.LSTM(64),\n  tf.keras.layers.Dense(512, activation=\"relu\"),\n  tf.keras.layers.Dense(256, activation=\"relu\"),\n  tf.keras.layers.Dense(64, activation=\"relu\"),\n  tf.keras.layers.Dense(1),\n  tf.keras.layers.Lambda(lambda x: x * 400)\n])\n\n # Print the model summary \nmodel.summary()\n\n\nModel: \"sequential\"\n\n\n_________________________________________________________________\n\n\n Layer (type)                Output Shape              Param #   \n\n\n=================================================================\n\n\n reshape (Reshape)           (None, 30, 1)             0         \n\n\n                                                                 \n\n\n conv1d (Conv1D)             (None, 30, 64)            256       \n\n\n                                                                 \n\n\n lstm (LSTM)                 (None, 30, 128)           98816     \n\n\n                                                                 \n\n\n lstm_1 (LSTM)               (None, 30, 128)           131584    \n\n\n                                                                 \n\n\n lstm_2 (LSTM)               (None, 64)                49408     \n\n\n                                                                 \n\n\n dense (Dense)               (None, 512)               33280     \n\n\n                                                                 \n\n\n dense_1 (Dense)             (None, 256)               131328    \n\n\n                                                                 \n\n\n dense_2 (Dense)             (None, 64)                16448     \n\n\n                                                                 \n\n\n dense_3 (Dense)             (None, 1)                 65        \n\n\n                                                                 \n\n\n lambda (Lambda)             (None, 1)                 0         \n\n\n                                                                 \n\n\n=================================================================\n\n\nTotal params: 461,185\n\n\nTrainable params: 461,185\n\n\nNon-trainable params: 0\n\n\n_________________________________________________________________"
  },
  {
    "objectID": "posts/cuda-benchmark/index.html#tune-the-learning-rate",
    "href": "posts/cuda-benchmark/index.html#tune-the-learning-rate",
…
